…
    8192/19993432 [..............................] - ETA: 0s 4202496/19993432 [=====>........................] - ETA: 0s 9543680/19993432 [=============>................] - ETA: 0s15089664/19993432 [=====================>........] - ETA: 0s19996672/19993432 [==============================] - 0s 0us/step

Model: "sequential"

_________________________________________________________________

Layer (type)                 Output Shape              Param #   

=================================================================

NASNet (Functional)          (None, 7, 7, 1056)        4269716   

_________________________________________________________________

dropout (Dropout)            (None, 7, 7, 1056)        0         

_________________________________________________________________

flatten (Flatten)            (None, 51744)             0         

_________________________________________________________________

batch_normalization (BatchNo (None, 51744)             206976    

_________________________________________________________________

dense (Dense)                (None, 32)                1655840   

_________________________________________________________________

batch_normalization_1 (Batch (None, 32)                128       

_________________________________________________________________

activation_188 (Activation)  (None, 32)                0         

_________________________________________________________________

dropout_1 (Dropout)          (None, 32)                0         

_________________________________________________________________

dense_1 (Dense)              (None, 32)                1056      

_________________________________________________________________

batch_normalization_2 (Batch (None, 32)                128       

_________________________________________________________________

activation_189 (Activation)  (None, 32)                0         

_________________________________________________________________

dropout_2 (Dropout)          (None, 32)                0         

_________________________________________________________________

dense_2 (Dense)              (None, 32)                1056      

_________________________________________________________________

batch_normalization_3 (Batch (None, 32)                128       

_________________________________________________________________

activation_190 (Activation)  (None, 32)                0         

_________________________________________________________________

dense_3 (Dense)              (None, 9)                 297       

=================================================================

Total params: 6,135,325

Trainable params: 1,761,929

Non-trainable params: 4,373,396

_________________________________________________________________

CPU times: user 3 µs, sys: 1 µs, total: 4 µs

Wall time: 7.87 µs

2021-03-24 17:57:50.103527: I tensorflow/compiler/mlir/mlir_graph_optimization_pass.cc:116] None of the MLIR optimization passes are enabled (registered 2)
…
